data/processed/graph_structure.pt (torch, 2376 bytes, 1 tensors)

edge_weight f4 [24]
1376.0 1376.0 2420.0 2420.0 3235.0 3235.0 3154.217 3154.217
2621.0 2621.0 3175.0 3175.0 1391.0 1391.0 3169.0 3169.0
2576.0 2576.0 3036.4578 3036.4578 2461.0 2461.0 3242.0 3242.0
00000000: 0000 ac44 0000 ac44 0040 1745 0040 1745
00000010: 0030 4a45 0030 4a45 7923 4545 7923 4545
00000020: 00d0 2345 00d0 2345 0070 4645 0070 4645
00000030: 00e0 ad44 00e0 ad44 0010 4645 0010 4645
00000040: 0000 2145 0000 2145 53c7 3d45 53c7 3d45
00000050: 00d0 1945 00d0 1945 00a0 4a45 00a0 4a45
